app/src/main/assets/lsm_model.tflite (tflite, 60004 bytes, 6 tensors)

arith.constant f4 [11, 64]
00000000: f6f0 62be c81d 89be b160 2bbe 69fd 6bbe
00000010: 8e56 2fbf d059 073d cebc 80be a593 21be
00000020: ed22 b4be f66a 993e f554 b6be 1764 a03d
00000030: c09a d03d c726 e53d 7a77 0ebe 6152 8dbd
00000040: c7cf 08bf ba22 f3bd 39f4 853e 8620 36bf
00000050: f050 c8bd e02f 5bbe 51af 62bd 203c 383e
00000060: 96ae bcbe 4148 ad3b f8a6 983d c140 db3d
00000070: 598c dc3e 8c26 4bbe 2bac ff3d 8c77 8dbe
00000080: 0108 0dbf 53b1 72be 115c 9ebd 2c05 8abd
00000090: 5e42 853e 1872 e3be 69f3 d53e 6cd2 de3e
000000a0: 5c92 09bf ab43 21bf d19b 6d3e f0a0 bebd
000000b0: e7e8 0dbe ee6e 25be dcac 8d3d a202 36bf
000000c0: 706c 7e3e a369 2f3d 2722 4f3d de15 323e
000000d0: 7fa0 6e3e 0e42 5b3e 80f2 b1bd a38a b53e
000000e0: d646 14bf a75a 543e 7e98 75be a095 82bc
000000f0: 1325 1d3e a1df ed3e 1a5b 873d f817 ddbe
00000100: f187 eabd 5626 453e c4a4 e4bd da2e b83e
00000110: 6d41 013d c1b1 c4be 15d8 7dbe c578 00bd
00000120: abec e43d b6d7 873e a246 e8be 2921 53be
00000130: ea2d 703e d165 c23e 04e6 69be 1958 263e
00000140: d6f6 a33d 004b 563b 57be 9c3e fed3 f7be
00000150: 1f23 66be 1f68 5abe 5e49 d2be acec b0be
00000160: 4ef5 80be e439 c03e b8a9 63bd cbca d7be
00000170: 1931 fdbe 1f90 313e 0f7e 9e3e bfbc f2bd
00000180: 06d8 0c3e d15c c7be 5654 c5bd 443f e7bd
00000190: 7305 b33d 76f6 f6be 0d84 cbbe c841 813c
000001a0: 76c4 09be d970 113e 19b7 853e 5077 ed3d
000001b0: b39e dabe f471 60be f2f5 c4bd 2cd7 a03e
000001c0: 1649 a8bd ec52 b6bd 09d2 2ebf 8653 953e
000001d0: 7ec8 f23d 30f5 cfbd 02c4 03be 00f5 e53d
000001e0: ed96 d23d f5e5 e3be 2c3c 48be 48e6 4abe
000001f0: 4fed 8c3d 174e a3be 0e06 d0be 5315 cf3e
00000200: 7de3 07be 6c12 d73d 6722 513d 931b 983e
00000210: ecc7 d9be c870 8c3e faf1 76be ddf0 03be
00000220: e681 e33e ca9f 193e 3735 89be 3b47 82bd
00000230: cfec 79be c8a3 023e fe02 cebe 1b54 47be
00000240: f2a6 263d 1040 8cbe a95a 57be 6dc7 9f3e
00000250: 0254 81be f0d9 19be e55c cbbe 383b 8a3e
00000260: 0b9e 333e e565 b0be 38af a23d 2ac9 8dbe
00000270: ef42 3cbe bec5 893e c76b 683e c09e 35bd
00000280: f5fb 73bd ab4c 48be dc7d e33d 7253 6a3e
00000290: 4c7d 7dbd c9dd 74be 7b90 e2bd 1f11 a13e
000002a0: e606 893e 9141 dfbe 03f9 bdbe a843 38bd
000002b0: 260e 0bbe acaf 9c3e 9e67 4cbe 39a6 8dbd
000002c0: a7ad 903c db0d 39be de74 1a3c f809 9e3e
000002d0: 55ef 0abe 3f3a 66bd d448 84be 2b1c 313e
000002e0: dc35 78bd 3329 c3be 5e8a 123e 404e 6f3d
000002f0: 8d6c 0abc 4c09 b73e a8d1 0a3e 0376 51be
00000300: 6c36 683e 45c7 33bd 0157 c33e bb01 a23d
00000310: 2ec0 163e e4ee 0ebf 0876 43be b9b1 15bd
00000320: 9cb1 d3bd 6beb 9ebe fbd3 1ebd bfd8 adbd
00000330: a27c 093e 7242 aebe f07f 023e cebe 783d
00000340: 37ff 88bc d817 1ebe db3a 01bc 936f c9be
00000350: 0d1b 9c3d 747f e13d 29c1 633e 8f17 a33e
00000360: 364c c6be 6604 09be 8cd5 d03d 9785 973e
00000370: 3691 0cbd 738b 8bbb 26df 9abe 6f8b 443b
00000380: ca0c c13b 332d 433e ef0a 253e 5096 6a3d
00000390: 82fd 7cbe 5cae 723e 2445 01bf ee68 d2be
000003a0: 0774 83be ad7a a53e 74df f9bd 39cd 8c3e
000003b0: c48a d2be 1a45 71be 289c 0abe 8675 a23e
000003c0: 90c6 ee3d ee04 d43d 522d ad3c e005 98be
000003d0: b286 603e 2080 113e c598 3abd b2c8 1f3e
000003e0: c8e7 063d 311f 3b3e a030 27bc 4eda 5f3e
000003f0: 47a3 c7be f746 29be f2bd 16bf 0dd7 c83e
-0.22162232 -0.26780534 -0.16736104 -0.23045887 -0.68491447 0.033044636 -0.25144047 -0.15778978
-0.35182896 0.29964417 -0.35611692 0.078315906 0.10185766 0.11189037 -0.13912764 -0.06900478
-0.53442043 -0.11871858 0.2616289 -0.71143377 -0.097810626 -0.21404982 -0.055342976 0.17991686
-0.36851948 0.0052881544 0.07453722 0.1070571 0.43075827 -0.19838923 0.1248401 -0.2763027
-0.5509034 -0.23700456 -0.07732404 -0.06739268 0.26027197 -0.44422984 0.4178727 0.43519914
-0.5373895 -0.6299388 0.2320397 -0.0930804 -0.13858376 -0.16155598 0.06917736 -0.7109777
0.24846053 0.042825352 0.05056968 0.17391154 0.23303412 0.21411917 -0.08688831 0.35457334
-0.5792059 0.20737706 -0.23983952 -0.015940487 0.15346174 0.46459678 0.06609173 -0.4318235
-0.1145171 0.19252905 -0.11164239 0.35973245 0.031556536 -0.38416865 -0.2478946 -0.031365175
0.11177953 0.26531762 -0.4536639 -0.20618118 0.23455015 0.37968305 -0.2284165 0.16244544
0.080060646 0.0032698512 0.30613968 -0.48403925 -0.22474335 -0.21328782 -0.410716 -0.34555566
-0.25187153 0.37544167 -0.05558178 -0.42146906 -0.4945152 0.17340134 0.3095555 -0.11852407
0.13754281 -0.38938 -0.096352264 -0.11291364 0.08741274 -0.4823491 -0.39749184 0.015778437
-0.1345385 0.14203204 0.26116255 0.11595023 -0.42699203 -0.2191847 -0.09617223 0.31414163
-0.08217065 -0.08902535 -0.6828924 0.29165286 0.11854647 -0.10154188 -0.1286774 0.11228371
0.10282693 -0.4451138 -0.19554204 -0.19814408 0.068812005 -0.31895515 -0.4062962 0.40445957
-0.13270374 0.105015606 0.0510582 0.29708537 -0.4253534 0.27429795 -0.24115744 -0.12884851
0.44435042 0.15002361 -0.26798412 -0.063612424 -0.24406742 0.1275779 -0.40236658 -0.19465677
0.040686555 -0.27392626 -0.21030678 0.31206837 -0.25259405 -0.15024543 -0.3971931 0.26998305
0.17540757 -0.3445274 0.079435766 -0.27692538 -0.18384908 0.26908678 0.22697364 -0.04434085
-0.059566457 -0.19560497 0.1110799 0.22883394 -0.06188707 -0.2391273 -0.11062714 0.31458375
0.26763076 -0.4360471 -0.37104043 -0.044986397 -0.13579616 0.30602777 -0.19961402 -0.0691647
0.017660929 -0.18071692 0.009427277 0.3086698 -0.1356786 -0.05620789 -0.25836813 0.17295901
-0.06059824 -0.3811737 0.14310595 0.058424234 -0.008448732 0.3574928 0.1355654 -0.20455174
0.2267701 -0.04389121 0.38152316 0.07910486 0.14721748 -0.5583327 -0.19087994 -0.036546443
-0.10336611 -0.31038985 -0.03877638 -0.08488607 0.1342645 -0.3403507 0.12744117 0.06072884
-0.016723258 -0.15438783 -0.007887567 -0.39342937 0.07622347 0.11010638 0.22241654 0.3185391
-0.3873002 -0.13380584 0.10196981 0.29594108 -0.03431817 -0.004258567 -0.30248374 0.0029990335
0.005891417 0.19060211 0.16117452 0.057272255 -0.2470608 0.23699325 -0.50496125 -0.4109568
-0.2567446 0.32320157 -0.122008234 0.27500322 -0.41121495 -0.23561516 -0.13536131 0.31730288
0.116589665 0.10352503 0.021139774 -0.29691982 0.21926382 0.14209032 -0.04555585 0.15603903
0.032935888 0.18273617 -0.010204464 0.2186062 -0.38991758 -0.16530977 -0.58883584 0.3922657

arith.constant1 f4 [64, 128]
00000000: 7204 9a3c a688 b63d 7396 e93d 89b7 8c3d
00000010: 95bf 0bbe 84bb f6bd 03ca 94bc 6bb8 d23d
00000020: 1e58 b53d e0bc 5a3c be7f c63d ef38 783d
00000030: cc60 753d a43f 623d 66d0 d83d 18e5 b23c
00000040: 7521 c3bc d888 883d c028 fdbb 0961 04bc
00000050: 5c56 a4bd 6509 1b3e a4b4 de3d 83c4 dfbd
00000060: 8669 fa3d 4998 7e3d c817 b73d 20dc 003d
00000070: 2cf2 0e3e 5de8 d4bd c93e 23be 1bce 023e
00000080: 70db 0f3d 080e 0fbe 88d9 05be e2dd 5d3d
00000090: 09ad 213e 8fc7 20be ed26 023e e72d 4a3d
000000a0: e583 293e 03af ed3b f3df 3f3d a988 22bd
000000b0: f898 9e3d 8194 d6bc 4292 d73d 6590 8abd
000000c0: ffb5 1f3e b75c 853c ccfa d03d 70b1 78bc
000000d0: 684d dfbd c657 2bbd ba78 9a3d 701e 743c
000000e0: 0047 82bd d1d6 b2bd 686c 33bc 535f 7cbd
000000f0: 9e58 1ebe b8e1 1c3e 28d8 16bd fef5 9b3d
00000100: 0d9a 953d 1d80 713d 6379 293e e5cc e23c
00000110: 0649 623d 9562 bfbc bac4 f93d a376 143e
00000120: 0db4 123e fb67 32be 3dc9 7fbd f3eb 06be
00000130: 2f85 6bbd da7c 973d e629 d3bd 5203 ef3d
00000140: 5891 003d 4dae cc3d 622a 67bd 7cdd b93d
00000150: f1df 3ebd 29a0 f1bd a302 ddbd 7889 0abd
00000160: 7c72 bebc 4f7b a4bd 73b4 34be 825d dc3d
00000170: 72ac ed3d 245d 31be 1a8b c53c 3109 0dbe
00000180: ba0c b1bd 41b6 0dbc bf90 df3d dcd5 62bd
00000190: 8cf4 23be 8e16 27bd e8e8 6c3d c333 79bd
000001a0: 82fc 9d3d 2078 ae3c 3441 06be c41e 063d
000001b0: 995f 70bd 0c34 31be 32a5 f0bd 5ce1 1c3e
000001c0: 8d12 d3bd acfe 56bd 374b 29be 2fc5 f7bd
000001d0: 1720 acbd d8c7 5c3d 2e34 12be fef6 973d
000001e0: fda0 95bd dce0 2e3c e558 203e 7043 0fbe
000001f0: f5b5 28be d940 053e 3626 01be 2565 413d
00000200: ae13 683e e865 843d 2639 773d 388a 9e3d
00000210: b2b2 393e 2442 a2bb 11ea 563e 584e f1bd
00000220: 1605 ebbd edd9 b93e 69c0 843e 7606 ae3d
00000230: 6aeb f73d 441d b3bd 99be 483e a334 a73e
00000240: 6c9f 73be 300e 033d d831 b53c 810b fb3d
00000250: d25b 513e e0a3 96bb bf8a 40be 4d60 d53c
00000260: 2cdb 66bd 9cd0 d43d 8f1b 5f3d 5b47 a9bd
00000270: a229 a23e 0d00 903d 2a4a 1d3e b821 04be
00000280: 91d2 35be af6e adbd fdc0 e9bd 0b9b 863e
00000290: 6c85 82be f672 aa3d 90e3 9abd dd45 d03c
000002a0: 0f61 bf3d 064c a73e c6a0 92bd b329 b93e
000002b0: b003 7d3d d07f 933e b52d f2bd 7d05 bfbd
000002c0: 268a a93d 71d1 74be 89cc 933e b83c b73e
000002d0: 308d 3dbc 3a08 1e3e 00ed 82ba b0bf c73d
000002e0: 206c cfbb 2b65 57bd fd4f cdbd a9cc a73e
000002f0: a9dc 55be f345 593e bb8b dc3e 1b0f 983e
00000300: a193 fb3d 46f2 ae3d 1528 2f3e 9ffd 933d
00000310: 2cbb 28be 6991 1fbd 0117 b13e c104 2c3e
00000320: 8172 233e 48fc f83d 543d 663e 15ba 50be
00000330: 97b0 a03e 927b ea3d cca6 213c e535 5ebd
00000340: e03f b83b cc01 b7bc fbd3 01be 8ad6 4cbe
00000350: 927a 933d 88ba b43e bc7b 0e3d d3ce 71bc
00000360: 0e0f b13e 0a00 9e3e 83d9 533e 16c8 943e
00000370: 9750 043e a320 2e3e 62b0 cabc 17d5 083e
00000380: ad5b 893e e95e 9fbe a575 833e b823 0c3e
00000390: 88fd 4d3d 6869 4d3d 0dd5 0f3e 99a0 423e
000003a0: 8570 be3e 302f a2bc c388 883e 3d20 5abc
000003b0: 0da9 d13d 1565 a83d 0f1b 9e3e 7e80 d43d
000003c0: 3dfe 873d 64ce 673d e254 7b3e 65bf e0bd
000003d0: 21e8 b23e 45a2 a6bd 6979 c53e 3060 b3bc
000003e0: 27d8 1a3d 80b9 6dbe 417a 3a3e a3c1 813d
000003f0: 9a31 9e3d da90 a73d 5125 eb3d 915e 3abe
0.018800948 0.08912782 0.11405649 0.06870944 -0.13647301 -0.120474845 -0.018162733 0.10289081
0.08854698 0.013350695 0.09692334 0.06060117 0.059906766 0.055236474 0.10586624 0.021837756
-0.023819664 0.06666726 -0.007725805 -0.008079776 -0.08024284 0.15140302 0.10874298 -0.109261535
0.12227158 0.06215695 0.08940083 0.031459928 0.13959569 -0.10395882 -0.1594192 0.12773935
0.03512138 -0.13970196 -0.13071263 0.054166682 0.15788664 -0.15701126 0.12710162 0.049360182
0.1655422 0.007253529 0.046844434 -0.03968111 0.0774402 -0.026193859 0.10525943 -0.06765822
0.1559677 0.016279561 0.10204086 -0.015179023 -0.10903436 -0.041831754 0.07542558 0.014899835
-0.063611984 -0.08732379 -0.010951139 -0.061614346 -0.15463492 0.1532048 -0.036827236 0.07615279
0.073047735 0.05896007 0.16550212 0.027685592 0.05524542 -0.023362437 0.12195726 0.14498381
0.14326496 -0.17422478 -0.062447775 -0.13175945 -0.05750006 0.073968604 -0.10310726 0.11670555
0.03138861 0.09994183 -0.056436904 0.09075448 -0.046600286 -0.11798126 -0.107915185 -0.033822507
-0.02324795 -0.08031332 -0.17646961 0.10760023 0.11605157 -0.17320687 0.02411418 -0.13773037
-0.086450055 -0.00864941 0.1091628 -0.055379733 -0.16011256 -0.040792994 0.057839304 -0.06084038
0.07714178 0.021297514 -0.1311081 0.032744184 -0.05868492 -0.1730501 -0.117502585 0.15320343
-0.10306273 -0.052488968 -0.16532598 -0.12098157 -0.08404558 0.053901523 -0.14277717 0.07420157
-0.07306097 0.010673728 0.1565891 -0.13990569 -0.16475661 0.13013019 -0.12612233 0.0472156
0.22663757 0.064647496 0.060357235 0.07741207 0.18134573 -0.0049517322 0.20987727 -0.11782521
-0.114755794 0.36299077 0.25928047 0.08497326 0.121054485 -0.08745816 0.19603957 0.32657346
-0.23791283 0.031995952 0.022118494 0.122580536 0.20445183 -0.004597172 -0.18802927 0.026046896
-0.056361362 0.103913516 0.05446964 -0.08265563 0.31672388 0.0703126 0.15360323 -0.12903488
-0.17756106 -0.08468377 -0.11413763 0.26290163 -0.25492418 0.08322708 -0.07562935 0.025423938
0.09344684 0.3267519 -0.07159571 0.36164626 0.061771095 0.2880845 -0.11825124 -0.09327219
0.08278303 -0.2390802 0.28866985 0.35788512 -0.011569306 0.15432826 -0.0009988844 0.09753358
-0.006330028 -0.052586716 -0.10025022 0.3277333 -0.20884956 0.2121809 0.43075356 0.29699025
0.12284017 0.08542304 0.17105134 0.07226109 -0.1647765 -0.038957033 0.34587863 0.16798688
0.15961649 0.12157494 0.22484332 -0.20383485 0.31384727 0.114493504 0.009866428 -0.054250617
0.005622849 -0.022339724 -0.1267852 -0.20003715 0.07201113 0.35298562 0.03478597 -0.014758783
0.34581798 0.30859405 0.20688443 0.29058903 0.12921368 0.17004637 -0.024742309 0.13362537
0.26827756 -0.31127098 0.25675693 0.136855 0.050290614 0.05014935 0.14046116 0.19006576
0.3719522 -0.019797891 0.2666684 -0.01331335 0.10237322 0.08222405 0.3088002 0.103760704
0.06640289 0.056593314 0.24544099 -0.109740056 0.34942725 -0.08136419 0.3856919 -0.021896452
0.037803795 -0.23215294 0.18210699 0.063357614 0.077243045 0.08181925 0.11481727 -0.18200137

arith.constant2 f4 [11]
00000000: 3c42 933d 3ad1 44bd 5618 7d3c c181 34bd
00000010: 76e9 c93a 712f 7fbc bb0b 5b3d bf46 85bd
00000020: 6c65 2e3b 4692 1fbc 7088 113c
0.071903676 -0.048051096 0.015447697 -0.044069055 0.001540466 -0.015575276 0.053477984 -0.06507634
0.0026610745 -0.009739464 0.008882627

sequential_1/dense_1_2/BiasAdd/ReadVariableOp f4 [64]
00000000: f163 3abc eafc 4dbd 5b47 fa3c 8449 5d3d
00000010: 122e 5dbc 64e2 d13d d8f2 54bc 264d 01bc
00000020: 0c08 493b 895f eebc 9445 3dbc fccd 0abc
00000030: 0000 0000 9310 7fbc f9a8 9c3d fae2 3a3d
00000040: ea3b 2d3d 0000 0000 1f40 d13d 0a46 6b3d
00000050: 2d93 903d 0000 0000 1777 bc3c 59fe c13d
00000060: f371 afbc 3d5f 663d 0000 0000 8f4f 673c
00000070: fe38 963d 615f ea3c b3af 2a3d 1eff 02bc
00000080: 7e7c 9bbc 38ea 3abc 66fa e3bc 0000 0000
00000090: 8425 1bbc ab29 963d bf3a 893d b674 e53d
000000a0: 733d f33c 72de b93c 63b5 923d 0000 0000
000000b0: e422 3d3d 0bf9 503c 0000 0000 69df 85bc
000000c0: 1919 4bbc fbad 1cbc 5ba0 663d 993d d83b
000000d0: ed53 753d 56b0 77bc 2df9 7ebc f07e d83d
000000e0: 6814 77bd 530c 2a3d 0000 0000 0000 0000
000000f0: 9afb 393d 9522 fd3d 4ee2 a53c d98b bc3b
-0.011376367 -0.050290026 0.030551603 0.054025188 -0.013499754 0.10248259 -0.012997352 -0.007891929
0.0030674962 -0.02909829 -0.011552233 -0.008471962 0.0 -0.015567916 0.076494165 0.045626618
0.042293467 0.0 0.10217308 0.05743984 0.070593216 0.0 0.023006005 0.09472341
-0.02141664 0.05624317 0.0 0.014118089 0.07335089 0.028609933 0.041671466 -0.007995395
-0.018980261 -0.011408381 -0.02782936 0.0 -0.009469394 0.07332166 0.06700658 0.112039015
0.029692387 0.022689078 0.07163503 0.0 0.046175852 0.012754689 0.0 -0.016341882
-0.0123961205 -0.009562965 0.05630527 0.00659914 0.05989449 -0.015117725 -0.015562338 0.105710864
-0.060322195 0.04151566 0.0 0.0 0.04540596 0.123601116 0.020249512 0.005753976

sequential_1/dense_1/BiasAdd/ReadVariableOp f4 [128]
00000000: 38c2 07bc 0000 0000 3d8c 8abc 301a b63c
00000010: 2c0d 0d3d 94d3 07bd 8593 9a3d 072a 923d
00000020: 0000 0000 5c71 e13c 8575 a03b cc63 1cbd
00000030: 0000 0000 0000 0000 681b c73c 8999 68bc
00000040: a5fb c43d 0000 0000 0000 0000 1436 16bd
00000050: b515 2e3d 0000 0000 f7ed 083e 0a95 2d3e
00000060: 0c72 e53b ca18 bcbc 7cb0 263e 3136 b83d
00000070: b991 0f3c 30fd 193e 7973 b43d 18fb fb3d
00000080: dc2c 203d d636 673d eb15 d43d 5b18 283b
00000090: 82fd cb3d 0000 0000 649b d63d 689b 8c3d
000000a0: d3ad a53d 7d3f 723c 6fee 983d 4d23 36bc
000000b0: fabc 143d 9003 10bd 0000 0000 c38e ad3d
000000c0: 0000 0000 8f49 153e 8b51 f53b 8a3e ab3c
000000d0: 0000 0000 820e e4bc 0000 0000 5465 6a3d
000000e0: 0000 0000 83ce a63c f6f0 383d 71e1 1dbd
000000f0: 9616 3a3d 75b4 743d 282b 7fbc bdff c53c
00000100: 5552 6c3b 5944 efbc 0000 0000 f549 eb3d
00000110: 9ac4 f93d f3c0 8d3d 4ddf 123d 0000 0000
00000120: 0000 0000 fe18 80bc ec1a c73d ab29 023e
00000130: ff45 26bd 0000 0000 2290 9b3d 4dd1 7f3d
00000140: 0000 0000 efe3 8e3d 042a 0fbb 56c9 3d3e
00000150: e4e8 0e3e e55f 263d 9aa6 1b3e d9ae 6dbc
00000160: 99b1 0a3c fe1a 82bc 0d38 4a3c 3992 6a3c
00000170: 0000 0000 ba20 193d 4a57 b53d 0000 0000
00000180: 3ed0 69bc b452 f23d 5c2e 5f3d ba6e b53d
00000190: 1978 713d 1d70 043d 6d8e ea3d 03b9 24bc
000001a0: 3c49 58bd 0000 0000 90e6 4d3d a5cd 22bc
000001b0: 8ccf 233b bcd6 023e b035 d6bc 9016 05bd
000001c0: 701e 003d 0000 0000 881d 913b c798 c73d
000001d0: 4965 733c 7478 8c3d 94e9 dd3d d97f 973d
000001e0: 52d8 bfbb 8559 cf3d 0178 0abd e5ef 9b3b
000001f0: 9010 593d f0ef 42bc 1178 973d c08b 053e
-0.008286051 0.0 -0.016912574 0.022229284 0.03443639 -0.03316076 0.07547668 0.07136922
0.0 0.027519874 0.004896822 -0.03818111 0.0 0.0 0.02430506 -0.014196762
0.0961831 0.0 0.0 -0.036672667 0.04250117 0.0 0.13372026 0.16951385
0.007002121 -0.02296104 0.16278261 0.08994711 0.00876277 0.1503799 0.08811087 0.12303752
0.03910528 0.05644878 0.10355743 0.0025649283 0.09960462 0.0 0.10478857 0.06865579
0.08089795 0.014785645 0.074673526 -0.011116815 0.036313035 -0.035159647 0.0 0.08474495
0.0 0.14578842 0.0074865273 0.020903844 0.0 -0.02783895 0.0 0.05722554
0.0 0.020362144 0.045151673 -0.038545076 0.045431696 0.05974241 -0.015574254 0.024169797
0.0036059816 -0.029207395 0.0 0.114887156 0.12195702 0.06921568 0.035857487 0.0
0.0 -0.015636917 0.09721932 0.12711208 -0.040594097 0.0 0.075958505 0.062455464
0.0 0.06977069 -0.0021845112 0.18533835 0.13956028 0.040618796 0.15200272 -0.014507019
0.008465194 -0.015882012 0.012342465 0.014317089 0.0 0.037384726 0.0885454 0.0
-0.01427084 0.118321806 0.05448757 0.0885901 0.058952425 0.032333482 0.11452947 -0.010053876
-0.052804217 0.0 0.05026871 -0.009936725 0.0024995534 0.12777227 -0.026148647 -0.03249222
0.031279027 0.0 0.004428569 0.09745937 0.014855691 0.06858912 0.10835567 0.07397432
-0.005854645 0.10124496 -0.03380585 0.0047588223 0.05299431 -0.011898026 0.07395948 0.13041592

sequential_1/dense_1/MatMul f4 [128, 42]
00000000: 4093 313d 3821 4e3e 3526 13bd d710 133e
00000010: d77a b13d 9678 6bbd 3f24 9bbe e593 8e3d
00000020: 73f0 18be 63e9 11bd 1ac4 fabd d133 643e
00000030: fefd c03c 4ebf 5fbc 2644 0e3e 60a9 64be
00000040: 9f68 173e 9f31 9ebd 6fec dc3d de3c ccbd
00000050: fc1d cebd e873 763e 2897 a2be 07ee 1b3e
00000060: aba8 5dbe 15ce bf3e 2adf 593e 01c1 4a3e
00000070: 7931 08be 62cc 3d3e 2f37 45bd f1d1 4e3e
00000080: 38a9 023e 1784 a53e 34f1 6b3e 5b36 dbbc
00000090: b67d c93d c44b ca3d f985 01be e92a 8fbe
000000a0: 1699 0fbe b450 77be 7f16 38be e184 b8bd
000000b0: 006c a13d 3ea7 c4bd 2870 2f3d 6cac ef3d
000000c0: 05ec 98bd 8c66 ba3d da2f aebd ecdd 03bd
000000d0: 980d 043d 2215 fabd c160 13be ec97 9b3d
000000e0: 7060 afbc 2caf 15be 73a4 97bd 68b4 d1bc
000000f0: d0ce 0abd 4074 8c3d 601c 533c b0e6 a2bc
00000100: b8d2 393e 4013 d93c b064 443c 50fc d53d
00000110: 4081 d13d d85a 1bbd f4eb 0e3d a80c 28be
00000120: d97e e1bd 5a6f 373e e61d 06be 0f43 aebd
00000130: 4dac b9bd c43f d93d 42ea 38be 60f4 633d
00000140: 2463 e7bd 8405 12be b872 ff3d 181a f1bc
00000150: e011 b9bc 0b5c 44be f99d 0e3e 1db0 7bbd
00000160: 5f2b 13be 131f 87bd 2d97 1dbe 9e6b 103e
00000170: 24b5 a6bd 6420 11bd c089 1d3e 3f8b d13d
00000180: e490 fc3d 00a7 47be c0a0 f03d 29e2 0ebe
00000190: 9089 903d af89 70bc 95e0 37be c1d5 d5b9
000001a0: 9e28 9e3d 28f7 3ebe 626d ad3c dbba 46bd
000001b0: e294 a23c 3cd9 27be c439 dc3d ccca 9a3d
000001c0: 8a00 953d a93e d1bd 81b9 c23d 5509 1cbe
000001d0: 2567 053e cf7a 32be a8e5 e13d 755f e2bd
000001e0: 8b76 843c 027b 3b3d 6e4c 46be 65a9 de3c
000001f0: a76f 4b3c 819b 9dbd a6b6 07be b865 25be
00000200: c57e 3fbe 4b62 2bbe 9917 debc 1a10 10be
00000210: d4ce 293d f1af c13d d944 c33e 9273 98bd
00000220: 50e5 b53d 9fa2 52be 8f91 a63d 861d 0fbe
00000230: 060b 973e 4c00 9b3c 4ada db3d d892 98be
00000240: 709c 763d f0e7 4cbc b3f5 7c3e c2ec 46be
00000250: d332 693e 96e7 92bd ea70 7f3e 90ce a43c
00000260: b6b4 833e e5f4 1f3e ef9a 953e 733e 4e3e
00000270: 429d 893e 60a4 423e 9a42 be3d 9825 f73d
00000280: e71c 933d 4c31 ad3d 29cb b93e db53 df3b
00000290: 8c10 583e f672 3a3e fa0a af3e bb60 bd3e
000002a0: df29 643e 9019 28be 40d0 233e 38cb 85be
000002b0: 197c 093e b899 77be 83a2 ebbd 7738 bebd
000002c0: bf34 e9bc a1bc 163d 2d41 8f3e 701e 5ebe
000002d0: bb62 383b 6c28 5abc c76e ec3d 1d65 823e
000002e0: dc57 3f3d fc97 a63e 2ed2 28bd 708e d93c
000002f0: 79d6 eabd 9738 993d 9b7e a1be 7390 a13c
00000300: 0425 87be cd3d cb3e e02a 51bd 833c 983d
00000310: 4705 e8bd 1414 033d c13c 51be 8cdc c73d
00000320: e666 99bd 5612 a03e 8e52 89be 6fc3 8bbd
00000330: 413f 92bd 8760 043e 4878 cfbe 2475 d33d
00000340: 709d e5bd 1e66 8c3d addf c73e 9d30 0e3e
00000350: 0409 b0bd c85b 9c3d 538f d0bd 0d3a c7bc
00000360: 193b 8c3c fda0 d13e a700 1dbe 4793 b93e
00000370: a60b 1a3d 7c3e cfbc 8509 3b3d 8c81 0d3e
00000380: b102 60be 5ce9 f7bd aa42 0e3b 385c b9be
00000390: 0900 83be fd96 7a3c cf50 39bc 0e14 0f3e
000003a0: 2bc6 9a3e 608a ba3d f44e 773e b972 653e
000003b0: b453 96be 3441 203e d29c 5e3d 23f9 493e
000003c0: 316d 483e 251e 243e d4d1 133e 8cd3 35bc
000003d0: c209 abbe 2dd5 bbbd 0a1c 5a3d bc3b 363d
000003e0: 5ae0 a63c 436f d93c 6ee7 963e 6002 0dbe
000003f0: 0528 26be 093a 883d d92e 273e 007a bfbd
0.04335332 0.2012986 -0.03592511 0.14361893 0.08666008 -0.057488047 -0.3030109 0.069618024
-0.14935474 -0.035622966 -0.12244435 0.22285391 0.023558613 -0.01365645 0.13893184 -0.22330236
0.14786004 -0.07724308 0.10787284 -0.09972547 -0.10064313 0.24067652 -0.31755948 0.15227519
-0.21646373 0.37461916 0.21276537 0.19800188 -0.13300122 0.18534997 -0.04814833 0.20197274
0.12759864 0.3232734 0.2304123 -0.026759317 0.098384306 0.098777324 -0.12648763 -0.27962425
-0.14023241 -0.2415188 -0.17977332 -0.0900972 0.078819275 -0.096022114 0.04283157 0.11702809
-0.07466892 0.091015905 -0.08505221 -0.032194063 0.032239527 -0.12211062 -0.14392377 0.07597336
-0.02140829 -0.14617604 -0.07404413 -0.02559872 -0.033888638 0.068581104 0.012885183 -0.019885391
0.18146789 0.026498437 0.011986896 0.104485154 0.102297306 -0.037928432 0.03489299 -0.16411078
-0.110105224 0.17913571 -0.13097343 -0.08508884 -0.09066067 0.106078655 -0.18058112 0.055652976
-0.112982064 -0.14259917 0.12473053 -0.029431388 -0.022591531 -0.19175737 0.1392745 -0.06144725
-0.14372014 -0.06597724 -0.153897 0.14103553 -0.081400186 -0.03543128 0.15384579 0.10231637
0.12332323 -0.19497299 0.11749411 -0.13953461 0.07057488 -0.014681264 -0.17956765 -0.00040785785
0.07722591 -0.1864897 0.021170322 -0.048518043 0.019846383 -0.16391462 0.107532054 0.07558212
0.072754934 -0.102170296 0.09508038 -0.15237935 0.13027628 -0.1742966 0.110301316 -0.11053363
0.016169807 0.045771606 -0.19365093 0.027180383 0.012416757 -0.07695676 -0.13253269 -0.16152084
-0.18700702 -0.16736715 -0.027110862 -0.14068642 0.041457012 0.09457386 0.38138464 -0.07443918
0.088816285 -0.20569848 0.08133232 -0.13976106 0.29500598 0.01892104 0.10734995 -0.29799533
0.060207784 -0.01250647 0.24703102 -0.19426253 0.22773294 -0.07173078 0.24945417 0.020118028
0.2572381 0.15620764 0.29219767 0.2014101 0.2687779 0.19008017 0.09290047 0.12067717
0.07183247 0.08456668 0.3628781 0.0068154163 0.21100062 0.18207917 0.34188062 0.36987862
0.22281598 -0.16416001 0.1599741 -0.26131606 0.13426246 -0.24179733 -0.11505606 -0.092881136
-0.028467534 0.036800984 0.27979413 -0.21691298 0.002813502 -0.013315301 0.115445666 0.25467768
0.04671465 0.3253783 -0.041216068 0.026557177 -0.11466689 0.07481497 -0.31541905 0.019722199
-0.26395428 0.39695588 -0.05106628 0.07433417 -0.113291316 0.03200157 -0.20433332 0.09758863
-0.074903294 0.3126399 -0.26820797 -0.068243854 -0.07140971 0.12927447 -0.40521455 0.10325077
-0.112116694 0.06855415 0.3903784 0.13885732 -0.085954696 0.076346934 -0.10183587 -0.024319673
0.017118024 0.40943137 -0.1533228 0.36245176 0.037608765 -0.02529835 0.045663375 0.1381895
-0.21876027 -0.12105057 0.0021707215 -0.3620317 -0.25585964 0.0152947875 -0.01131077 0.13972494
0.30229315 0.09108424 0.24151212 0.22407044 -0.29360735 0.15649873 0.054348774 0.19723944
0.19572903 0.16027124 0.14435512 -0.0110978 -0.33405882 -0.091715194 0.053249396 0.04449056
0.020370651 0.026542312 0.29473442 -0.13770437 -0.16226204 0.06651694 0.16326465 -0.093494415
